Name: test
Model: "sequential"
_________________________________________________________________
 Layer (type)                Output Shape              Param #   
=================================================================
 dense (Dense)               (None, 384)               40704     
                                                                 
 dropout (Dropout)           (None, 384)               0         
                                                                 
 dense_1 (Dense)             (None, 384)               147840    
                                                                 
 dropout_1 (Dropout)         (None, 384)               0         
                                                                 
 dense_2 (Dense)             (None, 256)               98560     
                                                                 
 dropout_2 (Dropout)         (None, 256)               0         
                                                                 
 dense_3 (Dense)             (None, 128)               32896     
                                                                 
 dropout_3 (Dropout)         (None, 128)               0         
                                                                 
 dense_4 (Dense)             (None, 52)                6708      
                                                                 
=================================================================
Total params: 326,708
Trainable params: 326,708
Non-trainable params: 0
_________________________________________________________________
Datafile: test.csv
Parameters:
  Epochs: 50
  Batch size: 10
  Validation split: 0.2
  Learning rate: 0.001
Time elapsed:
  Parsing:  00h00m00s
…
